MotionPro.pth (torch_old, 204259 bytes, 20 tensors)

embedding.0.weight f4 [64, 2, 1]
0	0xbf052cc1	-0.52021414
1	0x3e6aca00	0.2292862
2	0xbfbf57fa	-1.4948723
3	0x3d15dff1	0.03659052
4	0x3dea7526	0.114481255
5	0x3f16af14	0.588609
6	0x3f1110bc	0.5666616
7	0x3f12acb4	0.57294774
8	0xbf890052	-1.0703223
9	0x3f55d0aa	0.8352152
10	0xbf03d831	-0.51501757
11	0x3f251465	0.64484245
12	0xbf82a92b	-1.0207876
13	0x3ddb3412	0.10703291
14	0xbedbd7fa	-0.42938215
15	0xbd7a4098	-0.061096758
16	0x3dc24e30	0.09487569
17	0xbfc7b97f	-1.5603484
18	0xbf1150cc	-0.5676391
19	0x3fd12674	1.633986
20	0xbf3e53cd	-0.7434662
21	0x3f931a45	1.1492392
22	0x3efc4597	0.49271843
23	0xbee02964	-0.4378158
24	0x3f7803ab	0.96880597
25	0xbd3da22c	-0.046297237
26	0x3fa2584a	1.2683194
27	0x3de67ded	0.11254487
28	0xbe290991	-0.16507556
29	0x3eda57be	0.42645067
30	0xbe0be4a7	-0.13661443
31	0x3e0bc58e	0.1364958
32	0x3ee62558	0.44950366
33	0x3d82dfb9	0.06390328
34	0xbec44829	-0.38336304
35	0x3f906e45	1.1283652
36	0xbdd796da	-0.105268195
37	0xbf5e9a93	-0.8695461
38	0xbf2d3bf5	-0.6766961
39	0xbebfea6c	-0.37483537
40	0x3f853cee	1.0409219
41	0xbe9b7abd	-0.3036708
42	0x3db5c99d	0.08876345
43	0x3f5a61d9	0.85305554
44	0xbf5049ee	-0.8136281
45	0xbf6ea8dd	-0.93226415
46	0xbd8925c8	-0.06696659
47	0xbe6b6102	-0.22986224
48	0xbd6b3a3b	-0.05742858
49	0x3e91dd07	0.28488943
50	0xbdf5ed90	-0.12008202
51	0xbe8b9c80	-0.27267838
52	0xbe80dc58	-0.2516811
53	0x3ec59716	0.38591832
54	0x3f37d3d0	0.71807575
55	0xbf646727	-0.892199
56	0x3f4be300	0.7964325
57	0x3f843d05	1.0331122
58	0x3f72eb27	0.94890064
59	0x3f21ea0a	0.6324774
60	0x3f614ea9	0.8801065
61	0xbf7141bb	-0.9424092
62	0xbd863a6b	-0.06554111
63	0xbf356b03	-0.7086641
64	0xbec9b419	-0.39395216
65	0xbfc3aad9	-1.5286514
66	0x3dd0e4b8	0.10199875
67	0xbf5e5a43	-0.8685648
68	0x3ef0aa4b	0.47004923
69	0xbf466fc7	-0.7751431
70	0x3df99921	0.1218741
71	0x3fa7670b	1.3078321
72	0x3f9f136b	1.2427801
73	0x3f4fb824	0.8114035
74	0xbe3c91c3	-0.18414979
75	0xbf3e4b46	-0.7433361
76	0x3efd281e	0.4944467
77	0xbe7547fa	-0.23953238
78	0x3ed8405a	0.42236596
79	0xbe6dfb0d	-0.232403
80	0x3eb345c6	0.3501417
81	0x3f1307df	0.57433885
82	0xbe28df40	-0.16491413
83	0xbf05972a	-0.52183783
84	0x3e4d7333	0.20063476
85	0xb9f2fe9e	-0.00046347542
86	0x3ec5f0f4	0.38660395
87	0x3edcfde0	0.4316244
88	0xbc9c692d	-0.01909312
89	0x3e38b0f3	0.18036251
90	0x3e2491e7	0.16071282
91	0xbbb0f9c2	-0.005400867
92	0xbf060389	-0.52349144
93	0x3db7f5aa	0.089824036
94	0x3da83ea4	0.08215073
95	0xbb9ba3fb	-0.0047497726
96	0xbeacd649	-0.33757237
97	0xbd1bf8e3	-0.038079154
98	0x3e899792	0.2687345
99	0x3d921fd8	0.0713498
100	0x3f703bb7	0.9384112
101	0xbf42cac2	-0.76090634
102	0xbf5e4eea	-0.86839163
103	0x3e89c7a8	0.26910138
104	0xbe1bd70b	-0.15218751
105	0xbf85b01c	-1.0444369
106	0x3bd1fe80	0.0064085126
107	0x3dc8f6a8	0.09812671
108	0xbfa2a02f	-1.2705134
109	0xbf7af300	-0.9802704
110	0xbf2d31f2	-0.67654335
111	0xbe0e1558	-0.1387533
112	0xbe1bd346	-0.15217313
113	0xbf3b6a11	-0.7320872
114	0x3f0eb244	0.5574076
115	0xbf32b34e	-0.6980485
116	0xbf6e4a6a	-0.93082297
117	0xbf0c3cce	-0.5478028
118	0xbc54db47	-0.012991733
119	0x3e49f88b	0.19723718
120	0xbf150a62	-0.5821897
121	0xbefd8478	-0.49515128
122	0x3eea4bc6	0.45760936
123	0x3d94ae28	0.0725978
124	0x3d224813	0.039619517
125	0x3de7b557	0.11313885
126	0xbf48d859	-0.7845512
127	0xbf654f12	-0.89573777

embedding.0.bias f4 [64]
0	0x3d2c7366	0.04210224
1	0xbc0f3ac1	-0.008742035
2	0xbf15c819	-0.5850845
3	0x3e28ad15	0.16472276
4	0xbc2f89b0	-0.01071398
5	0xbe6910c5	-0.22760303
6	0xbb10ccb8	-0.0022094678
7	0xbdf845e2	-0.12122704
8	0xbc135667	-0.008992768
9	0x3d19fe66	0.03759613
10	0x3ccc894c	0.024967812
11	0xbe45989a	-0.19296494
12	0xbe921c2e	-0.28537124
13	0xbba3e26f	-0.005001358
14	0x3e195ede	0.14977595
15	0x3d88a3bc	0.06671855
16	0x3e04c88d	0.12967129
17	0xbb97e949	-0.004635964
18	0x3d0d9495	0.034565527
19	0x3dddcf6f	0.108305804
20	0xbb38d7a3	-0.0028204701
21	0xbe5ac914	-0.21365768
22	0xbec22cfb	-0.37924942
23	0xbe8c5c5f	-0.27414224
24	0x3dc4f6cb	0.096173845
25	0xbeae0c8e	-0.33993953
26	0xbf0d11c0	-0.5510521
27	0x3e079fae	0.13244507
28	0xbbabf0a7	-0.005247194
29	0xbea9b0bb	-0.33142647
30	0x3cd92506	0.026506912
31	0x3d19df8c	0.037566707
32	0xbc52f0c2	-0.012874784
33	0xbe85e4e0	-0.2615118
34	0xbe8701e7	-0.2636864
35	0xbbe6f513	-0.007048258
36	0xbc487818	-0.012235664
37	0x3ce6551d	0.028116757
38	0x3c46d673	0.01213609
39	0x3d2f9343	0.04286505
40	0x3e0e789a	0.13913193
41	0xbf2c64df	-0.6734142
42	0x3d7ebe18	0.062193006
43	0xbf2f7026	-0.685305
44	0x3d77c96a	0.060494818
45	0x3d4a10c2	0.049332388
46	0xb9cee692	-0.0003946317
47	0xbc0cf4e6	-0.00860331
48	0x3dee9dda	0.116512015
49	0x3dbf0793	0.093276165
50	0xbc2fe3f7	-0.010735503
51	0xbe88b8ad	-0.26703396
52	0xbea2fff4	-0.31835902
53	0xbf326ced	-0.6969746
54	0xbc4dbbff	-0.012557029
55	0xbe4d95e4	-0.2007671
56	0x3d11fb76	0.035640202
57	0x3c823398	0.015893742
58	0xbb900647	-0.0043952796
59	0xbe4316ce	-0.19051668
60	0x3d4cb912	0.049981184
61	0xbf10a858	-0.5650687
62	0x3d2ec1e6	0.042665385
63	0xbea37484	-0.31924832

conv1.weight f4 [64, 64, 1]
0	0xbcce2892	-0.02516583
1	0x3bd9fe9b	0.006652666
2	0x3d8eabb4	0.069663435
3	0x3d1c9be7	0.038234618
4	0x3ca938be	0.02065694
5	0x3f4d6782	0.80236065
6	0x3d7866fc	0.06064509
7	0x3f3337e1	0.7000714
8	0x3e0839ed	0.13303347
9	0x3e1d083e	0.15335175
10	0x3d2d9705	0.04238035
11	0x3f8fa14d	1.12211
12	0x3fb17625	1.386418
13	0x3e802bf0	0.25033522
14	0x3c3fc444	0.011704508
15	0xbc911d8b	-0.017714282
16	0x3e076191	0.13220812
17	0x3e042607	0.12905131
18	0xbd5acaf7	-0.05341622
19	0x3d28fbff	0.041255947
20	0x3da1c068	0.07898027
21	0x3f82f617	1.0231351
22	0x3f8c58aa	1.0964558
23	0x3dbf86d2	0.09351887
24	0xbd509996	-0.05092772
25	0xbdb2d124	-0.08731297
26	0xbcaef390	-0.021356374
27	0x3c5fcc33	0.013659525
28	0x3eb74418	0.3579414
29	0x3f39c810	0.72570896
30	0x3cf5c8f7	0.030003054
31	0xbd13d775	-0.036094148
32	0xbccd9980	-0.025097609
33	0x3fb7e52c	1.4366813
34	0x3f4cdc80	0.80023956
35	0x3ec1ff91	0.37890294
36	0x3e77c5cd	0.24196549
37	0x3dbc5866	0.09196548
38	0x3df4c837	0.119522505
39	0x3daf8d66	0.085718915
40	0x3de7ad5f	0.11312365
41	0xbdb6937e	-0.08914851
42	0x3de47ab5	0.11156217
43	0x3da525cc	0.0806385
44	0x3b29f2ca	0.0025932067
45	0x3c86f0c7	0.016472233
46	0x3dac415a	0.08410902
47	0xbcab1fec	-0.020889245
48	0x3c5fee60	0.013667673
49	0xbce652bb	-0.02811562
50	0x3d948ab5	0.07253019
51	0x3ed14c12	0.4087835
52	0x3fc6f878	1.5544577
53	0x3cc06970	0.023487777
54	0xbc379bfb	-0.011206622
55	0x3f72c905	0.9483798
56	0xbd88c6a4	-0.06678513
57	0x3e0141fa	0.12622824
58	0x3d6b631d	0.05746757
59	0xbc0fe929	-0.008783617
60	0x3ba2cd2a	0.004968305
61	0x3df8189c	0.12114069
62	0xbb9019dc	-0.004397614
63	0x3f0f1900	0.5589752
64	0x3d640cb6	0.055676185
65	0x3ece5b2c	0.40303934
66	0xbcc643f5	-0.024202326
67	0xbd1f5d68	-0.03890744
68	0x3e69276a	0.22768942
69	0x3ed3cc9f	0.4136705
70	0xbb2f1af1	-0.002671894
71	0x3e34166d	0.1758668
72	0x3e852bbc	0.2600993
73	0xbf23b8aa	-0.6395365
74	0xbeea903e	-0.45813173
75	0x3f52e75b	0.8238427
76	0x3f96df41	1.1786882
77	0x3df5c8f8	0.12001222
78	0xbdee83d8	-0.11646241
79	0x3dad309f	0.08456539
80	0x3dabe2f9	0.08392901
81	0x3df02349	0.1172548
82	0x3e881b84	0.26583493
83	0x3ca2344e	0.019800331
84	0x3ed208e7	0.41022417
85	0x3f6d8a66	0.92789304
86	0x3f670e74	0.9025643
87	0xbca02100	-0.019546986
88	0xbd5c8fec	-0.053848192
89	0x3dd1207c	0.10211274
90	0xbcab8ab8	-0.02094017
91	0x3daec07e	0.08532809
92	0x3daa0f2a	0.083036736
93	0x3f1a195c	0.60194945
94	0x3e957ff3	0.2919918
95	0x3d6eda30	0.05831355
96	0x3df82463	0.12116315
97	0x3f844a24	1.0335126
98	0x3eb0e79f	0.34551713
99	0xbca68aae	-0.0203298
100	0xbcd57754	-0.026057877
101	0x3e4364bc	0.19081396
102	0x3dbe3b01	0.09288598
103	0x3d99019f	0.07471012
104	0x3cc6920b	0.02423956
105	0xbd5fa9b0	-0.054605186
106	0x3e2a7e8e	0.1664984
107	0x3c8cf64e	0.017207291
108	0xbdd4570b	-0.10368165
109	0x3d38e991	0.04514462
110	0x3d9fe00d	0.07806406
111	0x3e1cffc8	0.15331948
112	0x3df14b0b	0.117818914
113	0x3dd92e4d	0.10604534
114	0x3ed7c971	0.42145875
115	0x3e992577	0.29911396
116	0x3f4e1c53	0.8051197
117	0xbc60f5e0	-0.013730496
118	0x3e22e810	0.15908837
119	0x3ea41595	0.32047716
120	0x3e7a55a4	0.24446732
121	0x3e89b27e	0.2689399
122	0x3e7dce6c	0.24785775
123	0x3d164af8	0.03669259
124	0x3e1df97e	0.15427205
125	0x3d682a5c	0.056681022
126	0x3d9a46ba	0.07533021
127	0x3eded833	0.43524322
128	0x3e070641	0.1318598
129	0x3e1304ba	0.14357272
130	0xbcf1542d	-0.029459083
131	0x3b8a90f9	0.004228708
132	0x3ec979d2	0.39350754
133	0x3f344e1f	0.70431703
134	0x3eb07749	0.34466007
135	0x3f8d0b77	1.1019124
136	0x3e89f117	0.2694175
137	0x3e283fa4	0.16430527
138	0x3e891029	0.26770142
139	0x3fa40022	1.281254
140	0x3f676056	0.9038137
141	0x3e23c3b5	0.15992625
142	0x3cfad543	0.03061927
143	0xbbaab584	-0.0052096266
144	0x3d03ea56	0.032205902
145	0x3ec26568	0.37967992
146	0x3d2d0471	0.042240564
147	0x3cf947b4	0.030429699
148	0x3eb08d97	0.34483024
149	0x3e23d8b7	0.16000639
150	0x3f248785	0.64269286
151	0x3cc1ac68	0.02364178
152	0x3d5ef3a8	0.054431587
153	0x3dea5fc8	0.1144405
154	0x3d3aa5f4	0.04556842
155	0x3cf0dd31	0.029402347
156	0x3e047c98	0.12938154
157	0x3f0733f1	0.5281363
158	0xbe85190f	-0.2599568
159	0x3d432c86	0.047649883
160	0x3e2f73f1	0.17134072
161	0x3fd6b66e	1.6774423
162	0x3f93fb50	1.156107
163	0x3e6d8205	0.2319413
164	0xbe951651	-0.2911859
165	0x3d7c2f64	0.061568633
166	0xbc18d518	-0.009328149
167	0xbd7a853a	-0.06116221
168	0x3c9d6065	0.019211004
169	0xbdf83502	-0.121194854
170	0x3c970c1e	0.018438395
171	0x3d326ecf	0.043562707
172	0x3e0c0aaf	0.1367595
173	0x3cb03dd2	0.021513853
174	0x3e96662e	0.29374832
175	0x3e009814	0.12558013
176	0x3c7fb92e	0.015608115
177	0x3d8c500c	0.06851205
178	0x3e8038ea	0.25043422
179	0x3f38507d	0.71997815
180	0x3fd6aff4	1.6772447
181	0xbbfcf740	-0.007719904
182	0x3e2977c3	0.16549592
183	0x3f8dfcb5	1.1092745
184	0x3ca9ae6e	0.020713057
185	0xbe1799a8	-0.14804709
186	0x3e60f66b	0.21969001
187	0xbdd7fef0	-0.10546672
188	0x3db91558	0.09037274
189	0xbd6c47d4	-0.05768569
190	0x3d735f34	0.059416965
191	0x3e9cb5c3	0.30607423
192	0xbc9feeec	-0.019523107
193	0x3c96e455	0.018419424
194	0xbdb684ce	-0.08912049
195	0xbd4b0d29	-0.049573097
196	0xbd8c68fd	-0.068559624
197	0x3f55717c	0.8337629
198	0xbd6aa47d	-0.057285774
199	0x3f95a6d3	1.1691536
200	0x3ddbf80e	0.10740672
201	0x3ce9441b	0.028474858
202	0x3cf79894	0.030224122
203	0x3f8eecfc	1.1166072
204	0x3fc009c4	1.500298
205	0xbcdc2151	-0.026871355
206	0x3dbe8b4f	0.09303915
207	0x3d4a4baa	0.049388565
208	0xbe86738f	-0.2626004
209	0x3d1ce721	0.03830636
210	0x3ccaef0c	0.02477219
211	0xbcfae739	-0.030627834
212	0x3d86b5aa	0.065776184
213	0x3ee9f02c	0.4569105
214	0x3f963c8a	1.1737225
215	0x3d92c2a4	0.07166031
216	0x3d118392	0.035525866
217	0x3defa4f6	0.11701386
218	0xbc8916a8	-0.016734436
219	0xbe29aa9a	-0.16568986
220	0x3dc40125	0.09570531
221	0x3f413cc6	0.7548336
222	0xbccd0d7b	-0.025030842
223	0xbd8112bb	-0.06302401
224	0x3d246ce7	0.04014292
225	0x3fbb6e07	1.4642953
226	0x3f0841b4	0.53225255
227	0x3d2d78b3	0.042351436
228	0xbe090bd3	-0.13383417
229	0x3c8d231e	0.01722866
230	0xbdbe4422	-0.09290339
231	0xbe7fc6db	-0.24978201
232	0xbd6b9cf1	-0.057522718
233	0xbd024198	-0.031800836
234	0xbee14db2	-0.4400459
235	0xbde8e358	-0.113714874
236	0x3e0f0071	0.13965012
237	0xbed02c1b	-0.4065865
238	0x3d148e8f	0.036268767
239	0xbd0f098b	-0.03492121
240	0x3c56a31a	0.01310041
241	0xbe68b74b	-0.2272617
242	0x3dc9fc24	0.09862545
243	0x3f74269b	0.9537141
244	0x3fd9b79c	1.7009158
245	0x3cc43d80	0.023955107
246	0x3c20f970	0.0098250955
247	0x3f6b3a60	0.9188595
248	0x3d16c808	0.03681186
249	0xbde94065	-0.113892354
250	0xbd76a48f	-0.06021553
251	0x3d4de168	0.050263792
252	0x3b3b0918	0.0028539356
253	0x3d979212	0.074009076
254	0x3d1ebba3	0.038753163
255	0x3f45b1a3	0.7722418

conv1.bias f4 [64]
0	0xbe12d2b7	-0.14338194
1	0xbd6a8c40	-0.05726266
2	0xbd8422cb	-0.06451949
3	0xbb51d3ff	-0.0032017229
4	0x3ce8983d	0.028392905
5	0xbde8a847	-0.11360221
6	0x3cb233ed	0.021753276
7	0xbdaddfd6	-0.08489959
8	0xbd91e7af	-0.07124268
9	0xbde98142	-0.11401607
10	0x3d66cd75	0.056348283
11	0xbdaaa11a	-0.08331509
12	0x3cc469fa	0.023976315
13	0xbdc052c1	-0.09390784
14	0x3c72f933	0.014829922
15	0xbd958ce8	-0.07302266
16	0x3de85b8b	0.113455854
17	0xbcc6bdaa	-0.02426036
18	0x3db8afe4	0.090179235
19	0x3be7a72c	0.007069489
20	0x3dc88dd0	0.097926736
21	0xbd8049d2	-0.0626408
22	0xbbcf0162	-0.0063173035
23	0x3d543972	0.051812597
24	0x3dbdbcc4	0.0926452
25	0xbdb19e04	-0.08672717
26	0x3e421f43	0.18957238
27	0xbe0765a6	-0.1322237
28	0x3da79c5b	0.08184119
29	0xbd95a7d8	-0.07307404
30	0xbd987609	-0.074443884
31	0xbe2b7cae	-0.1674678
32	0xbd0112e4	-0.031512156
33	0xbe0e3789	-0.13888372
34	0x3dc8f36e	0.098120555
35	0xbdd42809	-0.103591986
36	0xbdc94dca	-0.0982929
37	0x3d8717c0	0.06596327
38	0x3dde38a6	0.108506486
39	0x3e39735f	0.18110417
40	0x3dba123e	0.09085511
41	0x3c8bb651	0.017054709
42	0xbd074cae	-0.03303211
43	0x3d98e471	0.07465447
44	0xbc7e7fa2	-0.01553336
45	0xbdbfaa5e	-0.09358667
46	0x3ca83b92	0.020536218
47	0xbd272b53	-0.0408128
48	0xbc60dd6c	-0.013724666
49	0xbe32ed21	-0.1747327
50	0x3b92c74c	0.0044793244
51	0xbd1f4ce1	-0.038891677
52	0xbde4666d	-0.11152349
53	0xbd4210d0	-0.047379315
54	0xbdb3f7da	-0.08787508
55	0xbd8ee454	-0.06977144
56	0xbd32ed4c	-0.043683335
57	0xbe03eab5	-0.12882502
58	0xbc9915de	-0.018687185
59	0xbd31e7de	-0.043434016
60	0x3d6af7e8	0.057365328
61	0x3d2e9bbc	0.04262899
62	0xbdea1ba7	-0.114310555
63	0x3e46f144	0.19427973

conv2.weight f4 [32, 64, 1]
0	0x3e5c3482	0.21504405
1	0xbd7bd5ab	-0.061483067
2	0x3e155523	0.14583258
3	0x3eca9372	0.39565617
4	0xbdd5c01e	-0.10437034
5	0x3e98f700	0.29875946
6	0xbdb6d42e	-0.08927189
7	0x3c1b06b3	0.009462046
8	0x3f4e709c	0.8064058
9	0xbe7fb434	-0.24971086
10	0xbe335a1f	-0.17514847
11	0x3d9eae1f	0.07748055
12	0xbc742076	-0.014900317
13	0xbd013feb	-0.031555098
14	0x3d8a8603	0.06763842
15	0x3d2e09b0	0.042489707
16	0xbe8eb172	-0.27869755
17	0xbe6f0a8b	-0.23343866
18	0xbe844275	-0.25831953
19	0x3e38985b	0.18026869
20	0x3d8b4b48	0.06801468
21	0xbe0b44a7	-0.13600408
22	0x3ead655a	0.33866388
23	0x3e2e408c	0.1701681
24	0x3e3e57f7	0.18588243
25	0xbe8b55f2	-0.2721401
26	0xbe45c9f0	-0.19315314
27	0x3f511fb9	0.8168903
28	0x3d86ed8c	0.06588277
29	0x3f26033e	0.648487
30	0x3dd74d66	0.105128095
31	0x3e3b1b0b	0.18272035
32	0x3dcf625f	0.10126185
33	0x3f8035c5	1.0016409
34	0xbe310fcf	-0.17291187
35	0x3bb9e78b	0.005673354
36	0xbe210836	-0.15725788
37	0x3cb26ff8	0.021781906
38	0xbe92acd6	-0.28647488
39	0xbe58f8c1	-0.21188642
40	0xbd52188b	-0.051292937
41	0x3da05b69	0.07829935
42	0x3e16fd46	0.14745054
43	0xbe55efec	-0.20892304
44	0x3ea0b4a6	0.31387824
45	0x3e4b9aa8	0.19883215
46	0x3da549f1	0.08070744
47	0x3e782789	0.24233831
48	0xbe4b2c70	-0.1984117
49	0x3f25614f	0.64601606
50	0x3ce66b37	0.028127296
51	0x3f30f616	0.691255
52	0x3dc5a8b7	0.096513204
53	0x3d571ce3	0.052517783
54	0x3d357b1a	0.044306852
55	0xbcbeffec	-0.023315392
56	0x3e0e7141	0.1391039
57	0x3e39eea6	0.18157443
58	0x3dc4b9b0	0.096057296
59	0x3f465335	0.77470714
60	0xbe3cf0a3	-0.1845117
61	0xbe0b0399	-0.13575591
62	0x3d0e1a6e	0.034693174
63	0xbe6a802a	-0.22900453
64	0xbdd7839e	-0.10523151
65	0xbef6070c	-0.4805225
66	0xbe917328	-0.2840817
67	0xbe2a4233	-0.16626815
68	0xbf07642e	-0.5288724
69	0xbcf64f68	-0.03006716
70	0xbbe9517d	-0.00712031
71	0xbe9b54c0	-0.30338097
72	0xbe24fcee	-0.1611211
73	0x3ddc2471	0.10749138
74	0xbdc27166	-0.09494285
75	0xbe1127b1	-0.14175297
76	0x3d57fe75	0.052732904
77	0xbe62a45f	-0.22133015
78	0x3dd9862f	0.106212966
79	0x3c503af9	0.012709373
80	0x3f19fbe1	0.6014996
81	0xbc1f62f3	-0.009728181
82	0x3e143d24	0.14476448
83	0xbbb35358	-0.005472582
84	0xbda693f4	-0.081336886
85	0xbc7b1e55	-0.015327056
86	0xbe4b08ef	-0.19827627
87	0xbc1d5ee2	-0.009605141
88	0x3bee040f	0.0072636674
89	0xbe486d61	-0.19572975
90	0x3f22cd8c	0.6359489
91	0xbe82fe66	-0.25584716
92	0x3dea3453	0.11435761
93	0xbe1acf29	-0.15118088
94	0xbe1183d2	-0.14210442
95	0xbe6b447a	-0.2297534
96	0xbe97f9ed	-0.29682866
97	0xbe700bac	-0.23441952
98	0x3cb92bf4	0.022603966
99	0xbe880498	-0.26566005
100	0x3dabe5a6	0.08393411
101	0xbdae7f48	-0.08520371
102	0x3e32c6c6	0.17458639
103	0x3d38b05f	0.045090076
104	0x3b8bdd8d	0.0042683543
105	0x3dd318a2	0.10307433
106	0x3dc8d3d5	0.09806029
107	0x3d67170c	0.056418464
108	0xbe2945b8	-0.16530502
109	0xbcfd02c6	-0.030885112
110	0xbdf0a497	-0.11750143
111	0xbd1bf5c8	-0.038076192
112	0x3c0660e6	0.008201813
113	0xbe6ae3fc	-0.22938532
114	0xbd2777ea	-0.040885843
115	0xbe0ff3cf	-0.1405785
116	0xbedfa973	-0.43683967
117	0xbe0143ec	-0.12623566
118	0xbf253542	-0.6453439
119	0x3b82d868	0.003993083
120	0xbe046b8b	-0.1293165
121	0xbe889fc5	-0.26684394
122	0xbde23a6d	-0.110463
123	0xbe8abafb	-0.2709578
124	0x3eab3baf	0.33443972
125	0x3de40ba9	0.111350365
126	0xbd55b36b	-0.05217306
127	0x3d915930	0.07097089
128	0x3e2f950f	0.17146705
129	0x3ddc8b4d	0.10768757
130	0x3bf8dae4	0.007594453
131	0xbd9ebd61	-0.07750965
132	0xbd85c628	-0.06531936
133	0xbc5a5a53	-0.013327199
134	0x3e92194b	0.28534922
135	0x3ca85328	0.020547464
136	0xbdf256c5	-0.11832956
137	0x3e7ca144	0.24670893
138	0xbcf9f2c3	-0.030511266
139	0xbd9142d7	-0.07092827
140	0x3d6cf5bf	0.05785155
141	0x3c88ac7f	0.016683815
142	0x3d06abfa	0.032878853
143	0x3d52cc6b	0.05146448
144	0x3f32237e	0.69585407
145	0x3e0355ec	0.12825745
146	0xbd7b0ac8	-0.06128958
147	0xbd6b9914	-0.057519034
148	0xbdecf003	-0.11569216
149	0x3d9cb453	0.076515816
150	0xbc8cf4ed	-0.017206633
151	0xbd2547fc	-0.040351853
152	0xbd82c84b	-0.06385859
153	0x3a947ff9	0.0011329643
154	0x3f0c9bb4	0.54925084
155	0xbe5b4f04	-0.21416861
156	0xbe334e22	-0.17510274
157	0xbde07904	-0.10960582
158	0x3d953d5c	0.07287094
159	0x3d185cd3	0.0371979
160	0x3e4aedb0	0.19817233
161	0xbe50e84a	-0.20401111
162	0x3db69b6f	0.08916365
163	0x3ca37581	0.019953491
164	0x3e194554	0.14967853
165	0x3e407839	0.18795861
166	0xbe5a6ecd	-0.2133133
167	0xbe62ebc5	-0.22160251
168	0x3cfecf9c	0.031104855
169	0xbd21ff1b	-0.03954993
170	0x3e306f93	0.17230062
171	0x3d835b76	0.06413929
172	0xbdf93945	-0.121691264
173	0xbb2a1b12	-0.0025956077
174	0x3e245fd9	0.16052188
175	0x3cfb1fbc	0.03065478
176	0xbd2825c1	-0.04105163
177	0xbe9595cc	-0.29215848
178	0xbc5048ff	-0.012712716
179	0xbdadf26e	-0.084935054
180	0x3e0dd93a	0.13852397
181	0x3d64c00b	0.05584721
182	0x3d9ef65a	0.077618316
183	0x3d2d139b	0.042255025
184	0xbd5914a9	-0.05299822
185	0x3d57be50	0.05267173
186	0xbde2e1d2	-0.11078228
187	0xbe934a3b	-0.2876757
188	0x3e115f4d	0.1419651
189	0x3d2a2d0a	0.04154686
190	0xbdcbdd1c	-0.09954283
191	0xbd8539c3	-0.06505158
192	0xbd9023c6	-0.07038073
193	0xbc46e965	-0.0121406065
194	0x3e0bd8bd	0.13656898
195	0xbdd1f4d6	-0.10251777
196	0xbdcd89fe	-0.100360855
197	0x3e1c6c7e	0.15275761
198	0x3e0c1d59	0.1368307
199	0xbd1f98cb	-0.038964074
200	0xbde1a2fd	-0.11017416
201	0xbce20b9a	-0.027593423
202	0xbcba3511	-0.022730382
203	0x3d30111e	0.042985074
204	0x3dc120b2	0.09430064
205	0xbce8f71f	-0.028438149
206	0xbda07ed5	-0.07836691
207	0x3e07ea52	0.1327298
208	0x3ee6f72d	0.45110455
209	0x3ead0ec3	0.33800325
210	0x3ccd33c1	0.025049092
211	0xbd9ecf0c	-0.07754335
212	0xbe307042	-0.17230323
213	0x3d5b7e0a	0.053586997
214	0xbd4b469b	-0.04962788
215	0x3cad90ed	0.02118727
216	0xbe3fe051	-0.18737914
217	0x3bab919b	0.0052358634
218	0x3ef2b558	0.4740398
219	0xbd89a259	-0.067204185
220	0x3d346815	0.044044573
221	0xbe44a083	-0.19201855
222	0xbde5a8cb	-0.11213835
223	0x3e39e4b9	0.18153657
224	0x3da45883	0.08024695
225	0xbe890ad8	-0.26766086
226	0xbd209fb9	-0.039214823
227	0xbe0c4586	-0.13698396
228	0x3d584f41	0.052809957
229	0x3d0fe8d1	0.03513414
230	0xbd6ffdca	-0.05859164
231	0x3c8722e2	0.016496126
232	0x3c901e18	0.017592475
233	0xbdebd2ac	-0.11514792
234	0x3d9e878b	0.077406965
235	0x3bf84bd3	0.0075773983
236	0xbdd8f87b	-0.10594269
237	0xbddfa304	-0.10919765
238	0xbd6fa912	-0.058510847
239	0xbde7cb42	-0.11318065
240	0xbced6cb8	-0.028982505
241	0xbe812f35	-0.2523133
242	0x3ca3678b	0.019946834
243	0xbd56b51b	-0.05241881
244	0x3d74a846	0.05973079
245	0xbd4b49c4	-0.049630895
246	0x3d1a8c44	0.037731424
247	0x3b80fb75	0.003936226
248	0xbe21727b	-0.15766327
249	0x3e799cce	0.24376222
250	0xbd94d183	-0.07266524
251	0xbe51f520	-0.20503664
252	0x3e003fc8	0.1252433
253	0x3cedd2dd	0.029031212
254	0x3dea07b1	0.11427248
255	0xbdf2d002	-0.118560806

conv2.bias f4 [32]
0	0xbd34a904	-0.0441065
1	0x3da15243	0.07877018
2	0x3cab8c80	0.020941019
3	0x3db4db54	0.08830896
4	0x3cfe2fdd	0.031028682
5	0xbd8fb0a5	-0.07016114
6	0x3ce17d29	0.027525501
7	0xbe676dfc	-0.2260055
8	0xbc000942	-0.007814707
9	0xbb077389	-0.002066823
10	0x3dea9955	0.11455027
11	0xbe78d7e5	-0.24301107
12	0x3d842b4b	0.0645357
13	0x3c94f6a1	0.018184008
14	0x3b4167d9	0.002951136
15	0xbd0a4cb2	-0.03376455
16	0xbcd52877	-0.026020272
17	0xbd9fa2a7	-0.07794695
18	0xbe41ae1b	-0.18914072
19	0x3dc00624	0.09376171
20	0x3dce01e2	0.10058953
21	0xbbe5b596	-0.007010172
22	0xbcd078c4	-0.02544821
23	0x3b61c1fa	0.0034447894
24	0x3db713ee	0.08939348
25	0x3da8f0c9	0.08249051
26	0x3d92049e	0.07129787
27	0x3d653f01	0.05596829
28	0x3d8f3e6b	0.06994327
29	0x3d043120	0.03227341
30	0x3dee2d38	0.116297185
31	0x3de55d34	0.11199418

conv3.weight f4 [1, 32, 1]
0	0xbf3a5dcb	-0.72799367
1	0x3f9e75ba	1.2379677
2	0x3ff0bbcf	1.8807315
3	0x3f592d00	0.8483429
4	0xbf3f2296	-0.7466215
5	0xbf9d1f38	-1.2275152
6	0xbf4ae981	-0.7926255
7	0xbfb539cb	-1.4158262
8	0x3f8d76a9	1.1051837
9	0x3f8e2067	1.1103638
10	0xbf26bd97	-0.6513304
11	0xbfadc756	-1.3576458
12	0x3f6452d3	0.8918888
13	0xbe6b19f6	-0.22959122
14	0xbed01e1b	-0.4064797
15	0x3f564fcb	0.83715504
16	0xbf06d602	-0.526703
17	0x3eb98b2f	0.36239
18	0xbfd17bb1	-1.6365873
19	0xbf6ceb5b	-0.92546624
20	0xbf219a0b	-0.63125676
21	0x3f60837b	0.87700623
22	0x3fa25133	1.268103
23	0xbd092718	-0.03348455
24	0x3f761701	0.9612885
25	0xbdea1114	-0.11429039
26	0xbe41b636	-0.18917164
27	0x3d99fc95	0.07518879
28	0xbe646852	-0.2230542
29	0x3f8a38c4	1.0798573
30	0xbf314948	-0.69252443
31	0xbf250f15	-0.6447614

embedding_motion.0.weight f4 [64, 2, 1]
0	0xbfe2c2f7	-1.7715749
1	0xbf809182	-1.0044405
2	0xbe9a15fa	-0.30094892
3	0x40131e3f	2.298721
4	0x3fa2cc85	1.2718664
5	0xbf5f5e3c	-0.87253165
6	0xbeebe156	-0.46070355
7	0xbc54d9f1	-0.012991414
8	0xbe8968c5	-0.26837745
9	0x3f3d41d8	0.73928595
10	0x3f99c49f	1.2013129
11	0x3f5cbf11	0.86229044
12	0x3e939a62	0.28828722
13	0x3ef1ad6e	0.4720263
14	0xbfd02919	-1.6262542
15	0x3e68f0f0	0.2274816
16	0x3f5efdcc	0.87106013
17	0xbef1b8cc	-0.472113
18	0xbe607eef	-0.21923421
19	0xbf51dd9e	-0.81978786
20	0x3e8c3bf7	0.273895
21	0x3dcd0ff6	0.1001281
22	0x3faf6742	1.3703387
23	0x3d4aa464	0.04947318
24	0xbf5ae114	-0.8549969
25	0x3eacf831	0.33783105
26	0xbdb591fe	-0.088657364
27	0xbfea735f	-1.8316458
28	0xbf90bece	-1.1308229
29	0xbfc7b3b1	-1.5601712
30	0xbf8bc33d	-1.0918957
31	0xbf28fd85	-0.6601184
32	0x3e4f84b3	0.20265464
33	0x3f225a95	0.6341947
34	0x3fff2479	1.9933006
35	0x3f90ccc6	1.1312492
36	0xbe044e2b	-0.12920444
37	0x3f368b79	0.7130657
38	0x3f0dcec0	0.553936
39	0x3f17d405	0.5930789
40	0xbfa85edd	-1.315395
41	0xbfefd251	-1.8736058
42	0xbf7ff44e	-0.99982154
43	0x3f85419d	1.0410649
44	0x3efccb54	0.49373877
45	0x3f77136a	0.96514
46	0x3ea2efe2	0.3182364
47	0xbe5d2e6a	-0.21599737
48	0x3dd66cec	0.10469994
49	0xbf4ea6aa	-0.8072306
50	0xbfdc0e30	-1.719183
51	0xbf9c646e	-1.2218149
52	0xbfaf9637	-1.3717717
53	0x3f33e76f	0.70275015
54	0xbfa531af	-1.2905787
55	0x3bc265de	0.0059325537
56	0x3ffc7a74	1.972487
57	0x3fb53ffe	1.4160154
58	0x3ed30401	0.41213992
59	0x3b962405	0.0045819306
60	0xbd817f03	-0.06323054
61	0xbd2ea181	-0.04263449
62	0xbb459a98	-0.003015196
63	0x3fea1d6b	1.8290228
64	0x3f262ceb	0.6491229
65	0x3f608438	0.8770175
66	0xbf183d6f	-0.5946874
67	0x3ebf3c66	0.37350768
68	0x3efa04ba	0.4883173
69	0xbaf7c4aa	-0.0018903215
70	0x3f9b509c	1.2133975
71	0x3f50e7a7	0.81603473
72	0xbef9e7b7	-0.48809597
73	0x3ee05c81	0.43820575
74	0xbf283264	-0.6570189
75	0xbf1cfba1	-0.61321455
76	0x3f30a66a	0.6900393
77	0xbefa08f7	-0.48834965
78	0x3ebfc060	0.37451458
79	0x3f965a72	1.1746352
80	0x3f85f57c	1.0465541
81	0xbf89ab3e	-1.0755384
82	0x3ebf9683	0.3741952
83	0xbf9ce0a5	-1.2256056
84	0x3f629ada	0.88517535
85	0x3e7f074d	0.24905129
86	0x3e384648	0.1799556
87	0x3f37fbae	0.7186841
88	0x3f8b081f	1.0861853
89	0xbf4f29d2	-0.8092319
90	0xbf2cc2fd	-0.6748503
91	0x3f0d1ff6	0.55126894
92	0xbe358ed4	-0.17730266
93	0xbf7b7dc6	-0.9823879
94	0x3f8c26dd	1.094936
95	0xbf0d1e12	-0.5512401
96	0x3fdc76d1	1.722376
97	0x3fa7f6d7	1.3122205
98	0xbd92933f	-0.07156991
99	0xbf31248a	-0.6919638
100	0xbf9bc831	-1.2170469
101	0xbed768a3	-0.4207202
102	0x3e25d364	0.1619392
103	0xbf359f8a	-0.7094656
104	0xbede6ae9	-0.4344094
105	0xbf05fe61	-0.52341276
106	0x3e3cc3a2	0.18434003
107	0x3f439b5a	0.7640892
108	0xbfd16a3e	-1.6360548
109	0xbf5f468b	-0.87217015
110	0xbf46edd1	-0.7770663
111	0x3f8e1d3d	1.1102673
112	0x3edff15c	0.4373883
113	0x3c6a73c1	0.014309824
114	0xbefe274d	-0.4963936
115	0xbf2b6a87	-0.6695942
116	0x3ec779f3	0.38960227
117	0xc0017acf	-2.0231206
118	0xbda015ee	-0.07816683
119	0x401c33d9	2.4406645
120	0x3f122206	0.57083166
121	0xbf0011a2	-0.50026906
122	0xbf017081	-0.5056229
123	0xbf4f1b3f	-0.8090095
124	0x3f55a6af	0.83457464
125	0xbf67fa4d	-0.90616304
126	0x3f2ba661	0.6705075
127	0xbc3b896f	-0.011446341

embedding_motion.0.bias f4 [64]
0	0x3e020151	0.12695815
1	0x3cd67ddd	0.026183063
2	0x3e147302	0.14496997
3	0xbef77e6f	-0.4833865
4	0xbf1b0f78	-0.6057048
5	0x3c8f778b	0.017513057
6	0x3c4c405d	0.012466517
7	0x3f0512c9	0.5198179
8	0xbeb490ba	-0.35266668
9	0xbe447c61	-0.19188072
10	0x3b9ecb7b	0.004846034
11	0x3eccc68a	0.39995223
12	0x3d04c257	0.0324119
13	0x3baf60ac	0.0053521004
14	0x3e680a70	0.22660232
15	0x3d0c4559	0.034245823
16	0xbe1d4438	-0.15358055
17	0x3eb57959	0.35444143
18	0xbee14c8a	-0.44003707
19	0x3d02020d	0.031740237
20	0x3e5c4bb1	0.21513249
21	0x3d03c9c5	0.032174844
22	0xbe0a90c9	-0.13531794
23	0xbec08519	-0.37601545
24	0xbe8ddac7	-0.27705976
25	0x3d3c828c	0.046022937
26	0x3c003eab	0.007827441
27	0x3c2f549b	0.010701324
28	0x3ef8df0a	0.48607665
29	0xbec7f74e	-0.39055866
30	0xbe7995f3	-0.24373607
31	0x3c4d50c0	0.012531459
32	0xbe78a349	-0.24281038
33	0xbf0737eb	-0.528197
34	0xbf033795	-0.51256686
35	0x3dd27d45	0.102777995
36	0xbf20bdb8	-0.6278949
37	0xbf0f58aa	-0.55994666
38	0xbe9041f4	-0.28175318
39	0x3e0c054b	0.13673894
40	0x3ebfa719	0.37432173
41	0x3c0cdcb1	0.008597539
42	0xbec5451c	-0.3852929
43	0xbda57537	-0.080789976
44	0x3c833d59	0.016020464
45	0xbf530f40	-0.82445145
46	0xbe981796	-0.29705495
47	0x3bf1c1ea	0.0073778527
48	0x3ea19442	0.31558424
49	0xbe5cc08c	-0.21557826
50	0x3d57ba24	0.052667752
51	0xbf15a6a3	-0.5845739
52	0xbe9f9df4	-0.31175196
53	0xbe5cdfaa	-0.21569696
54	0x3c3898a2	0.011266859
55	0x3c081e5d	0.00830802
56	0x3c82e54f	0.015978483
57	0xbec93def	-0.39305064
58	0x3ea57f19	0.3232353
59	0x3c339b71	0.010962353
60	0xbf040104	-0.5156405
61	0xbe3db32f	-0.18525384
62	0x3dc3b05d	0.09555123
63	0xbf2449b8	-0.64174986

m_conv1.weight f4 [128, 64, 1]
0	0x3c9e76f0	0.019343823
1	0x3e208943	0.15677361
2	0xbd94f36c	-0.072729915
3	0x3d8f9a6a	0.07011874
4	0xbd8f0ef2	-0.069852725
5	0xbd7b3800	-0.061332703
6	0x3c99030e	0.018678214
7	0x3b9a630e	0.0047115153
8	0xbdb1fb2a	-0.08690484
9	0xbde2c6ec	-0.110730976
10	0xbe08b029	-0.1334845
11	0xbd222079	-0.03958175
12	0x3d6f3e33	0.058408927
13	0xbf6d7abd	-0.9276541
14	0xbd96f8d9	-0.07371683
15	0xbc960a9f	-0.018315611
16	0xbecf3b0d	-0.4047474
17	0x3e08bd15	0.13353379
18	0x3c520fc1	0.012821139
19	0xbd19ee3c	-0.037580714
20	0xbd4e0a92	-0.05030305
21	0x3d6c5cc3	0.057705652
22	0xbd5b7eba	-0.053587653
23	0xbe1d13dd	-0.15339608
24	0x3da66f1d	0.08126662
25	0xbe14a988	-0.14517796
26	0x3dab1503	0.08353617
27	0x3c446fa1	0.011989505
28	0x3db95b06	0.090505645
29	0x3e3d2ff2	0.18475321
30	0x3cded507	0.027201189
31	0x3e0416f0	0.12899375
32	0xbe33eaca	-0.17570034
33	0x3e30fabc	0.17283148
34	0xbd990be8	-0.07472974
35	0xbdd7ecce	-0.10543214
36	0x3e337d5e	0.17528293
37	0x3b844fd9	0.004037839
38	0xbe3994b1	-0.18123128
39	0x3d736ac3	0.059427988
40	0xbd7411d0	-0.0595873
41	0xbef8f643	-0.48625383
42	0xbda743d6	-0.081672356
43	0xbe28665d	-0.16445298
44	0xbd8b47b6	-0.06800787
45	0x3da5e61d	0.08100531
46	0x3e7685f8	0.24074543
47	0xbe0b7f9a	-0.13622895
48	0x3d9be7e9	0.07612593
49	0x3e8b58d5	0.2721621
50	0xbcf8253f	-0.030291198
51	0x3dca7535	0.09885637
52	0xbe55ac9b	-0.20866625
53	0xbf00b047	-0.5026898
54	0xbe4cc809	-0.19998182
55	0x3daf4e96	0.08559911
56	0x3cabea02	0.020985607
57	0xbe4ae9b3	-0.19815712
58	0x3cb83922	0.02248818
59	0x3e9de956	0.30842084
60	0xbdb2bbf5	-0.08727256
61	0xbdaa7731	-0.08323515
62	0xbdb54eb4	-0.08852902
63	0xba637ae0	-0.00086776726
64	0x3c074e60	0.008258432
65	0x3c54805a	0.0129700545
66	0xbda08ade	-0.07838987
67	0xbcd25fd5	-0.025680462
68	0xbdfc7e89	-0.12328822
69	0x3e327851	0.1742871
70	0x3da4a703	0.080396675
71	0xba37309d	-0.000698814
72	0xbe6e26d3	-0.23256998
73	0x3e70cc9a	0.2351555
74	0xbdc3a1d7	-0.09552353
75	0xbdb38ba1	-0.087668665
76	0x3d286a82	0.0411172
77	0xbecab24a	-0.3958915
78	0xbd52b851	-0.05144531
79	0xbb0893bd	-0.0020840012
80	0x3d6f2a5a	0.05839
81	0x3e29a335	0.16566165
82	0xbe8fc8eb	-0.28082976
83	0x3c40f0de	0.011776177
84	0x3d0be048	0.03414944
85	0x3db53e98	0.088498294
86	0xbe213b92	-0.1574538
87	0xbe1e6a69	-0.1547028
88	0x3e1e542a	0.15461794
89	0x3d926b49	0.07149369
90	0xbda3f10e	-0.08004962
91	0xbe926f5f	-0.28600594
92	0x3d61cd68	0.05512753
93	0xbe90e74e	-0.2830147
94	0xbcd58adc	-0.02606719
95	0x3da1da5b	0.07902976
96	0xbe93b115	-0.2884604
97	0xbd6d95da	-0.058004238
98	0xbeb097e4	-0.34490883
99	0x3d9424b5	0.07233564
100	0x3bb1f6b3	0.00543102
101	0x3ceb1eb5	0.028701166
102	0xbab79760	-0.0014006905
103	0x3e0e6fc8	0.13909829
104	0xbdf72148	-0.12066895
105	0xbe1c24eb	-0.15248458
106	0xbeae5d86	-0.34055728
107	0xbdc71055	-0.09719912
108	0xbd4a6155	-0.04940923
109	0xbe1dcad3	-0.15409403
110	0x3e23ba5b	0.15989058
111	0xbd32ecde	-0.043682925
112	0xbd03e2cf	-0.032198723
113	0x3e9a6f90	0.3016324
114	0x3dc33aeb	0.09532722
115	0x3d9f8568	0.07789117
116	0x3e46e9c1	0.19425108
117	0xbda0a193	-0.07843318
118	0xbea8eee1	-0.3299475
119	0xbd10256e	-0.035191946
120	0xbd99d65f	-0.07511591
121	0x3d93bbdd	0.072135665
122	0x3d2dae8a	0.04240278
123	0x3d98f13b	0.07467886
124	0xbda63b08	-0.08116728
125	0x3d87f0b6	0.06637709
126	0x3dcde2de	0.10053037
127	0xbd3ef561	-0.04662073
128	0x3d7bb894	0.061455324
129	0xbab3f6e0	-0.0013730191
130	0xbd8da1b8	-0.06915611
131	0xbdef2a22	-0.11677958
132	0x3cd510e0	0.026009023
133	0xbc58d1bd	-0.013233599
134	0xbe0608cf	-0.13089298
135	0x3d476a75	0.04868551
136	0x3e277ab9	0.16355409
137	0xbd8c853e	-0.068613514
138	0xbd3f1bb4	-0.04665728
139	0x3c7eea95	0.015558858
140	0x3d90e3b7	0.07074683
141	0xbe0eb0b0	-0.13934588
142	0x3dc25894	0.09489551
143	0xbb8db578	-0.0043246113
144	0xbdeee1ee	-0.116641864
145	0xbd77312a	-0.06034962
146	0x3c3cd8e7	0.011526323
147	0xbc77da15	-0.015127678
148	0xbd1c1e05	-0.038114566
149	0xbd500bf3	-0.050792646
150	0xbd399193	-0.045304846
151	0x3db2d07d	0.08731172
152	0xbc8448a3	-0.016147917
153	0x3d9799ea	0.07402404
154	0xbda0eb80	-0.07857418
155	0xbe03e3e6	-0.12879905
156	0xbd01f9b9	-0.031732295
157	0x3e78179e	0.24227759
158	0x3c75f909	0.015012988
159	0x3dfa4372	0.122198954
160	0xbc4fb551	-0.012677507
161	0xbe0381d6	-0.12842497
162	0x3e1eda20	0.15512896
163	0xbe137931	-0.144017
164	0x3e214dbf	0.15752314
165	0xbb81f32e	-0.003965757
166	0x3e1a0758	0.15041864
167	0xbdb3bbfd	-0.0877609
168	0xbd43388f	-0.04766136
169	0xbdba0265	-0.09082488
170	0xbd76c72e	-0.060248546
171	0xbe29fdd3	-0.16600733
172	0xbe1a1950	-0.15048718
173	0x3d72e082	0.05929614
174	0x3c6736e6	0.01411221
175	0xbed54e09	-0.416611
176	0x3b37f762	0.0028071036
177	0x3dcb1bdc	0.09917423
178	0x3ddc5f3e	0.107603535
179	0x3e2054ad	0.15657301
180	0xbd114d7e	-0.035474293
181	0xbe8fc671	-0.28081086
182	0xbe3d0f5e	-0.18462893
183	0x3e015ef8	0.12633884
184	0x3c902cb6	0.017599445
185	0xbd0a1ecf	-0.033720788
186	0xbd9a563e	-0.07535981
187	0x3e08c4fd	0.13356395
188	0xbd0b8fca	-0.034072675
189	0x3da3b202	0.07992937
190	0xbdc6cf7b	-0.097075425
191	0x3dd90922	0.10597445
192	0x3c882914	0.01662115
193	0xbd38e34f	-0.045138653
194	0xbca477f3	-0.020076727
195	0xbdd8a599	-0.1057846
196	0xbc0db1cd	-0.008648348
197	0x3e0cc66e	0.1374757
198	0x3d0bc225	0.034120698
199	0x3d1aca39	0.03779051
200	0x3dc82b19	0.09773845
201	0x3e6c7501	0.23091508
202	0xbbe96f6a	-0.0071238773
203	0xbc87c1f3	-0.016571974
204	0xbda027fe	-0.07820128
205	0xbeb29a2f	-0.34883258
206	0xbd6f68e0	-0.058449626
207	0xbc9dc3b3	-0.019258356
208	0x3e3cbe22	0.18431905
209	0x3da9b34d	0.08286152
210	0xbe4162bc	-0.1888532
211	0x3d86796b	0.065661274
212	0xbc666dd2	-0.014064269
213	0x3da082de	0.07837461
214	0x3eb1f87d	0.34759894
215	0xbc878b96	-0.016546052
216	0x3e35b93e	0.17746446
217	0xbdcbbfe5	-0.0994871
218	0x3dcfdd1a	0.10149594
219	0xbd6f1746	-0.058371805
220	0xbc6f0969	-0.014589646
221	0xbe246e22	-0.16057637
222	0x3d9acc7f	0.07558536
223	0x3e1ee6c2	0.15517715
224	0x3eb4c320	0.3530512
225	0xbe2c95a1	-0.16853954
226	0xbe0382da	-0.12842885
227	0x3b83bd9b	0.0040204055
228	0xbeb1cb56	-0.34725446
229	0x3d77c5bf	0.06049132
230	0x3e165608	0.14681256
231	0xbc8ed869	-0.017437177
232	0xbd768662	-0.06018675
233	0xbe3a98c2	-0.18222335
234	0x3cf2c702	0.02963591
235	0x3e7345cc	0.23757094
236	0xbd25baa7	-0.04046121
237	0xbe2e1dd3	-0.17003565
238	0x3e7e1e93	0.2481635
239	0xbe042cb9	-0.12907685
240	0xbdb98253	-0.090580605
241	0x3ecf658f	0.4050717
242	0xbdeef5e4	-0.11667994
243	0xbd207c16	-0.039180838
244	0x3dd6b3ba	0.10483499
245	0xbaec742a	-0.0018039991
246	0xbda27ca1	-0.07933927
247	0x3e31ea84	0.17374617
248	0x3d62950b	0.05531792
249	0xbc3a2c82	-0.011363151
250	0xbde10261	-0.10986782
251	0xbc544c00	-0.012957573
252	0xbe18a44c	-0.14906424
253	0xbda8bb86	-0.08238892
254	0x3cb1605c	0.021652393
255	0x3d6a6029	0.05722061

m_conv1.bias f4 [128]
0	0x3d20422c	0.039125606
1	0xbdb476db	-0.088117324
2	0x3c8322c8	0.016007796
3	0x3cfc5316	0.030801337
4	0x3da57ae8	0.08080083
5	0xbd246cda	-0.04014287
6	0x3df8fd0e	0.12157641
7	0xbd98a25a	-0.07452841
8	0x3b69f4a2	0.003569879
9	0x3deafd90	0.114741445
10	0xbda87e81	-0.08227254
11	0xbcefa7ca	-0.029254813
12	0xbcbb5e1e	-0.022872027
13	0xbc945d7a	-0.01811098
14	0xbd836af0	-0.06416881
15	0xbdc78931	-0.09742964
16	0x3d18740c	0.037220046
17	0xbd2ceab8	-0.042216033
18	0xbc38b95d	-0.011274663
19	0xbc0466fc	-0.008081194
20	0x3d88c9bf	0.06679105
21	0x3dd482f6	0.10376541
22	0x3dd7771a	0.10520764
23	0x3e1fcd09	0.15605558
24	0xbd8efbb9	-0.06981606
25	0xbc298376	-0.010346284
26	0x3d0de553	0.03464253
27	0x3cd2461d	0.025668198
28	0x3c4f28d5	0.012644012
29	0xbd8f1740	-0.069868565
30	0x3cf9d96d	0.030499185
31	0x3dea5764	0.1144245
32	0xbd85605b	-0.06512519
33	0xbd970a1e	-0.073749766
34	0x3db578db	0.08860942
35	0x3de6f077	0.11276334
36	0xbc4b78ac	-0.012418907
37	0xbdfb28e9	-0.12263662
38	0x3db9917c	0.09060952
39	0x3d5a848a	0.053349055
40	0xbdba2d98	-0.090907276
41	0xbd0c73b0	-0.034290016
42	0xbde6baf0	-0.11266124
43	0xbd92464c	-0.07142314
44	0x3ddfcf27	0.10928183
45	0x3cea7108	0.02861835
46	0x3d8516d1	0.064984925
47	0xbdea5aec	-0.11443123
48	0x3bed373e	0.0072392514
49	0xbd248aa7	-0.04017129
50	0x3ddc7864	0.1076515
51	0xbd1cf967	-0.038323786
52	0x3c305eb9	0.010764771
53	0xbd6b0449	-0.057377134
54	0x3dac5c77	0.08416074
55	0x3dfd3815	0.123642124
56	0xbd357ae5	-0.044306654
57	0x3d0c2ec8	0.0342243
58	0x3e0af19c	0.13568729
59	0x3e294854	0.16531497
60	0xbd7dfb7f	-0.062007423
61	0x3dcf0aef	0.10109507
62	0x3da07d7e	0.07836436
63	0x3d3fc2aa	0.046816505
64	0xbd9109a0	-0.07081914
65	0x3d53fade	0.051752917
66	0x3d36d418	0.044635862
67	0x3df39c30	0.11895025
68	0x3d9980c9	0.07495267
69	0x3d1fa142	0.038972147
70	0x3de4a396	0.11164014
71	0x3d2e56c8	0.04256323
72	0x3d65e78d	0.056129027
73	0xbdd30460	-0.10303569
74	0xbc682804	-0.014169697
75	0xbc678012	-0.014129655
76	0x3d0c8a3a	0.03431151
77	0xbd42d7db	-0.047569137
78	0x3d56f841	0.052482847
79	0x3c327914	0.010893125
80	0xbd81c1e8	-0.06335813
81	0xbdb3d3a3	-0.08780601
82	0x3d2f3156	0.04277166
83	0x3d1778c7	0.036980417
84	0x3d6501b7	0.05590984
85	0x3c1a4054	0.009414751
86	0x3df1e461	0.11811138
87	0xbd65f399	-0.056140516
88	0xbc8d0429	-0.017213898
89	0x3c0e6acf	0.008692457
90	0x3d6b9909	0.057518993
91	0xbdc8ba2d	-0.09801135
92	0xbd9e782d	-0.077377655
93	0x3ca1ee59	0.019766973
94	0xbd75b2a9	-0.059984837
95	0xbda316b0	-0.07963312
96	0x3cd34cb6	0.025793415
97	0xbdbb07a5	-0.091323175
98	0x3de5a513	0.11213126
99	0x3bf83ab2	0.0075753564
100	0x3d6245b0	0.05524224
101	0x3d9a95a3	0.07548072
102	0x3d755846	0.059898637
103	0xbcfe3b1b	-0.031034043
104	0x3c0a61ef	0.008446201
105	0x3cdd397f	0.027004955
106	0xbe0d676d	-0.13808985
107	0x3c865598	0.016398236
108	0x3cc0a8ea	0.023518045
109	0xbe004eb0	-0.12530017
110	0xbc8c0785	-0.01709343
111	0x3d2e2f9f	0.042525884
112	0x3dd59f7a	0.10430808
113	0xbdb12cd4	-0.086511284
114	0xbd986f1e	-0.07443069
115	0xbdced51d	-0.10099242
116	0x3cb2775b	0.021785429
117	0xbd9af52c	-0.07566294
118	0x3c893a4d	0.016751433
119	0x3e03e9d4	0.12882167
120	0xbbb150d9	-0.005411249
121	0x3db787c8	0.08961445
122	0xbd4457b5	-0.047935206
123	0x3dc427cb	0.095779024
124	0x3cb1c575	0.0217006
125	0xbd03c599	-0.032170866
126	0xbce8ab71	-0.028402062
127	0x3c8c90ad	0.01715883

m_conv2.weight f4 [128, 128, 1]
0	0x3d876229	0.066105194
1	0xbd196bb9	-0.037456248
2	0xbdf75ceb	-0.120782696
3	0x3cb55379	0.02213453
4	0xbb31f8c5	-0.0027156335
5	0x3e07d395	0.13264306
6	0xbd9d6abf	-0.07686376
7	0x3d3ebd27	0.04656711
8	0xbd953916	-0.07286279
9	0xbe0252b3	-0.1272686
10	0x3dcdacec	0.10042748
11	0xbd75b8fc	-0.059990868
12	0x3ddbe576	0.107371256
13	0xbd38c512	-0.045109816
14	0xbd9c0936	-0.07618944
15	0x3d816343	0.06317761
16	0xbe0f9eba	-0.14025393
17	0xbbf42f75	-0.0074519464
18	0x3db511dc	0.08841297
19	0xbd5b3f49	-0.05352715
20	0x3d4e4507	0.0503588
21	0xbd56e552	-0.05246479
22	0x3e0137af	0.12618898
23	0x3d095954	0.033532456
24	0xbdb29862	-0.08720471
25	0xbd82e5be	-0.06391476
26	0x3cf175ac	0.029475056
27	0x3d6d31cc	0.057908818
28	0x3c86b026	0.016441416
29	0xbc74b11d	-0.014934805
30	0x3d50ffed	0.05102532
31	0xbd858814	-0.065200955
32	0x3c27945c	0.010228243
33	0xbdabaa37	-0.08382075
34	0x3b5fb6f3	0.0034136146
35	0xbe8373bd	-0.2567424
36	0xbdafa346	-0.08576064
37	0x3cf600ce	0.03002968
38	0x3cc91b9a	0.024549294
39	0xbd51c50d	-0.051213313
40	0x3da630ef	0.08114802
41	0x3a849de9	0.0010117862
42	0x3d2cf37d	0.042224396
43	0xbcc668ce	-0.024219897
44	0xbbf8b8cd	-0.0075903893
45	0xbdd4b890	-0.10386765
46	0x3dc07c9a	0.09398766
47	0x3d18e24c	0.03732519
48	0x3b9cd94e	0.004786647
49	0xbddb966d	-0.10722051
50	0xbd851613	-0.06498351
51	0x3d994833	0.07484474
52	0xbd5bbc51	-0.05364639
53	0x3c75f4b9	0.01501196
54	0x3e05a309	0.13050474
55	0x3c0348a7	0.008012927
56	0x3d001f7d	0.03128003
57	0xbc863b4a	-0.016385693
58	0xbd8763ed	-0.06610856
59	0xba458254	-0.0007534374
60	0x3db0a947	0.08626037
61	0xbd354765	-0.04425754
62	0xbd59b83e	-0.053154223
63	0xbe26ae8a	-0.16277519
64	0x3e1b7677	0.1518191
65	0x3d0a3ee8	0.0337514
66	0xbe427567	-0.18990098
67	0xbe2435b7	-0.16036116
68	0xbd6f3eca	-0.05840949
69	0x3cfd0793	0.0308874
70	0x3d70f833	0.05883045
71	0x3db0a62c	0.08625445
72	0xbd6b0c9a	-0.057385065
73	0x3d5e7d81	0.05431891
74	0x3d9e80e6	0.07739429
75	0xbd4ba508	-0.049717933
76	0xbd958e63	-0.07302549
77	0x3d2f955d	0.042867053
78	0x3e18cc5b	0.14921705
79	0xbd4d5eb1	-0.050139133
80	0xbcb46d8f	-0.022024898
81	0x3db5b0dc	0.08871624
82	0xbd46e757	-0.048560467
83	0x3c8bb70b	0.017055055
84	0xbdc83981	-0.09776593
85	0x3dee36e1	0.11631561
86	0xbcee8340	-0.02911532
87	0xbe02de5e	-0.12780139
88	0x3d411bae	0.047145538
89	0xbd2882cd	-0.041140366
90	0x3d2b393f	0.04180264
91	0xbc3d5a68	-0.011557199
92	0x3c98f7a7	0.018672777
93	0xbe37c9e2	-0.17948106
94	0x3d5ab2f1	0.053393308
95	0x3dcacba5	0.09902123
96	0x3d06716e	0.03282302
97	0x3e00cba7	0.12577687
98	0xbe2f446a	-0.17115942
99	0x3daa69c1	0.08320952
100	0x3da1f637	0.0790829
101	0xbd79c9a2	-0.060983308
102	0xbd2092fa	-0.039202668
103	0x3cd8859f	0.026430903
104	0xbbdde095	-0.006771157
105	0xbd49794a	-0.049187936
106	0x3e8b57d8	0.27215457
107	0x3de4acf6	0.11165802
108	0x3db45a97	0.08806341
109	0x3dd2c66c	0.10291752
110	0x3de688a6	0.11256532
111	0xbdbf3302	-0.09335901
112	0xbe4b7eec	-0.19872636
113	0xbd79ed46	-0.061017297
114	0x3da792f9	0.0818233
115	0x3d10c4ba	0.035343863
116	0xbd1749fe	-0.0369358
117	0xbd5e6576	-0.05429598
118	0x3d8fe030	0.07025182
119	0x3e0906ab	0.1338145
120	0x3ddc1006	0.10745244
121	0xbd9cf1f6	-0.07663338
122	0xbd2a1cd1	-0.041531388
123	0xbd339da4	-0.04385151
124	0x3d611155	0.05494817
125	0xbd70fe0a	-0.05883602
126	0x3e13cf4a	0.14434543
127	0x3dac38d9	0.0840928
128	0x3e03a05c	0.12854141
129	0x3d08a996	0.033364855
130	0xbd838144	-0.0642114
131	0xbe8315a2	-0.25602442
132	0xbe065569	-0.13118519
133	0xbe85c7b3	-0.2612892
134	0xbd8d2b20	-0.06892991
135	0xbe2fab02	-0.17155078
136	0x3de9070c	0.11378297
137	0x3d79b9b9	0.060968135
138	0x3d0faaa3	0.03507484
139	0xbe0d2028	-0.13781798
140	0xbcfe57ad	-0.031047666
141	0x3e0bca47	0.13651381
142	0x3cbcf1a6	0.023064446
143	0x3c15182b	0.0091
144	0x3bc1fe50	0.005920209
145	0xbd8177e4	-0.063216954
146	0xbd852344	-0.06500867
147	0xbe092665	-0.13393553
148	0x3d0ce152	0.03439457
149	0x3d43ab9d	0.047771085
150	0xbe0bbf0a	-0.13647094
151	0xbd5594a1	-0.052143697
152	0x3d38f1fd	0.045152653
153	0xbba39aaa	-0.0049928026
154	0xbdc1befb	-0.09460255
155	0xbd869e40	-0.065731525
156	0xbd35c56f	-0.04437774
157	0xbdb8d448	-0.090248644
158	0x3d75622e	0.059908085
159	0xbd9b777c	-0.07591149
160	0x3bc5ec6b	0.006040146
161	0xbd69a4a1	-0.057041768
162	0x3cf3c7af	0.029758302
163	0xbe8207bb	-0.25396523
164	0xbc92a000	-0.01789856
165	0xbc5dd2e1	-0.013539047
166	0xbeb07ffc	-0.34472644
167	0xbdd22c21	-0.10262323
168	0xbd85d094	-0.06533924
169	0xbd25b247	-0.04045322
170	0xbd9056c8	-0.07047802
171	0xbcee0a7d	-0.029057736
172	0xbd8ccbbf	-0.06874799
173	0xbe1070b0	-0.14105487
174	0x3d2dea4f	0.042459782
175	0x3da645d2	0.08118786
176	0xbaf0074b	-0.001831272
177	0xbd65179a	-0.05593071
178	0xbd009c74	-0.031399205
179	0xbd19f0f0	-0.03758329
180	0xbbbceb72	-0.005765372
181	0xbcac0172	-0.020996783
182	0xbe453c1b	-0.1926121
183	0x3c9c2be5	0.0190639
184	0xbb530f84	-0.0032205293
185	0xbd316d86	-0.04331734
186	0x3cba33ef	0.022729842
187	0xbdc3ce85	-0.09560875
188	0x3ac99fdd	0.0015382726
189	0x3d4112fa	0.047137238
190	0xbdb573e4	-0.08859995
191	0xbdc9c32c	-0.09851679
192	0xbd16692d	-0.036721397
193	0xbdfa9867	-0.122361
194	0x3bf75716	0.0075482232
195	0x3dd0dc5a	0.10198279
196	0xbe3798f9	-0.17929448
197	0xbe50d40e	-0.20393392
198	0xbd0a1e3a	-0.033720233
199	0xbd859386	-0.065222785
200	0x3e05ae61	0.13054802
201	0xbd5e0b5c	-0.054210052
202	0x3ccb72de	0.024835046
203	0xbd773c17	-0.06036004
204	0xbe19a77d	-0.15005298
205	0xbe3b1476	-0.18269524
206	0xbe82918b	-0.25501665
207	0xbda2dfb3	-0.079528235
208	0xbe4122ac	-0.18860883
209	0xbd804494	-0.0626308
210	0x3d6dc4e2	0.05804909
211	0xbd90058b	-0.07032307
212	0xbc502811	-0.012704865
213	0xbbd2a127	-0.0064279023
214	0xbe03fbb2	-0.12888983
215	0xbd2048ee	-0.03913205
216	0x3d906e97	0.07052343
217	0x3e33ffc2	0.17578033
218	0xbe745ee7	-0.23864327
219	0xbd87e982	-0.06636335
220	0xbda2bbb6	-0.07945959
221	0xbd36ec0f	-0.044658717
222	0xbe0e1fa0	-0.13879251
223	0xbe83b1e5	-0.2572166
224	0xbcee3108	-0.029076114
225	0xbdd7d470	-0.10538566
226	0x3a837084	0.0010028039
227	0xbc9eeef5	-0.019401053
228	0xbd7bb512	-0.06145198
229	0x3ceb71ee	0.02874085
230	0x3cb8c47b	0.022554627
231	0xbe4a8366	-0.19776687
232	0xbd620e62	-0.055189498
233	0xbe1e1430	-0.15437388
234	0x3d26efe8	0.040756136
235	0x3cdfd4d2	0.02732316
236	0xbe1bb7ad	-0.15206786
237	0xbd2a66ee	-0.041602068
238	0x3d93b799	0.07212753
239	0xbe1fe51b	-0.1561474
240	0x3b9763ba	0.0046200426
241	0x3cc6e0c7	0.024277104
242	0x3d9fd3a4	0.07804039
243	0x3d547a21	0.051874284
244	0x3d9362de	0.07196592
245	0xbd06b043	-0.03288294
246	0xbe232bfe	-0.1593475
247	0xbe1de415	-0.15419038
248	0x3daa199f	0.08305668
249	0xbe2dc414	-0.16969329
250	0x3c2e76a6	0.010648405
251	0x3dd92424	0.106025964
252	0xbd2dba10	-0.04241377
253	0x3cb14b6e	0.021642413
254	0xbd5c5a0d	-0.053796817
255	0xbe41665c	-0.18886703

m_conv2.bias f4 [128]
0	0xbd999bfb	-0.07500454
1	0x3c2cbb62	0.010542722
2	0xbda7525b	-0.08170005
3	0xbd9d3d3f	-0.076776974
4	0x3dc5dde7	0.09661465
5	0xbd8824bb	-0.06647631
6	0x3cb27f15	0.021789113
7	0xbd855fd0	-0.065124154
8	0xbd943a1c	-0.07237646
9	0xbd431dd4	-0.04763587
10	0x3d83c045	0.06433157
11	0xbbf0a12d	-0.0073434324
12	0xbc83d74e	-0.016093876
13	0xbd337bec	-0.043819353
14	0xbe149309	-0.14509214
15	0xbe02d63e	-0.1277704
16	0xbc64ff61	-0.013976903
17	0x3be6fd9c	0.0070492756
18	0x3d5e1fba	0.054229476
19	0xbd9608da	-0.07325907
20	0xbc394939	-0.011308962
21	0xbd26f555	-0.04076131
22	0xbd3f90b0	-0.046768844
23	0xbd567434	-0.052356914
24	0x3db53ea9	0.08849842
25	0x3d595fdc	0.053069934
26	0xbd37c6c0	-0.044867277
27	0xbd20ec2a	-0.039287724
28	0xbc9492d6	-0.018136423
29	0x3c8af7f6	0.01696394
30	0x3cdf90bc	0.027290694
31	0xbc8d1b55	-0.017224947
32	0xbe2c600c	-0.16833514
33	0xbc49666b	-0.012292485
34	0xbc25b8e4	-0.010114882
35	0x3d123c19	0.035701845
36	0x3da578c2	0.08079673
37	0xbd5ce472	-0.0539288
38	0xbc83540d	-0.01603129
39	0xbdc26a19	-0.09492893
40	0xbbb9f740	-0.0056752264
41	0xb9a167bb	-0.00030785598
42	0x3b9ba1ad	0.004749498
43	0xbb2bf643	-0.0026239313
44	0x3c326ea4	0.010890637
45	0xbcf585b0	-0.029970974
46	0xbd8ade71	-0.067807086
47	0x3d18b04c	0.037277505
48	0xbaeb1e0c	-0.0017938032
49	0xbd0c43c0	-0.0342443
50	0xbdbe75c4	-0.09299806
51	0xbd6aa530	-0.05728644
52	0x3c150a54	0.009096701
53	0x3ca1e2a5	0.019761393
54	0xbdfab40e	-0.12241374
55	0xbe01f77c	-0.12692064
56	0xbc21e138	-0.0098803565
57	0x3ce6ac7b	0.028158417
58	0x3d23ef24	0.040022984
59	0x3d82d922	0.06389071
60	0xbc560042	-0.013061585
61	0x3da14702	0.07874872
62	0xbd8a8e95	-0.067654766
63	0xbd3a079e	-0.04541742
64	0x3d951fa1	0.07281423
65	0xbcfd8588	-0.030947462
66	0xbd50d3ea	-0.050983347
67	0x3da75824	0.08171108
68	0x3d37cde2	0.04487408
69	0x3d292816	0.041297995
70	0xbc2ecc8e	-0.010668887
71	0xbe259058	-0.16168344
72	0xbdd10cd6	-0.102075264
73	0x3c9d6266	0.01921196
74	0xbbb34bd4	-0.005471686
75	0xbc996950	-0.018726975
76	0x3d2ff556	0.04295858
77	0xbe36a419	-0.17836036
78	0xbd9f4fe5	-0.077789105
79	0x3d2ffd8a	0.042966403
80	0xbd9453c7	-0.07242542
81	0xbd1f224b	-0.038851064
82	0xbd3c49bc	-0.045968756
83	0xbd36dd12	-0.044644423
84	0x3cce3b4e	0.025174763
85	0xbd050cd9	-0.032482956
86	0xbcd834dc	-0.026392393
87	0x3d97939b	0.074012004
88	0xbd6f0ebb	-0.058363657
89	0xbdaf9554	-0.08573404
90	0xbe118289	-0.14209951
91	0x3d0c11ab	0.034196537
92	0xbd9fe3a6	-0.07807092
93	0x3bb3e179	0.005489525
94	0xbd1bbdef	-0.03802293
95	0x3d129c29	0.035793457
96	0xbddb9940	-0.107225895
97	0xbda06ffc	-0.07833859
98	0xbd90c025	-0.07067899
99	0xbcc5bf28	-0.024139002
100	0xbc61bbc3	-0.013777676
101	0x3c469a38	0.01212173
102	0xbd8052cd	-0.06265793
103	0xbdbeea5a	-0.09322043
104	0xbd2fa891	-0.042885367
105	0xbdad2ae2	-0.08455445
106	0x3c07b861	0.008283705
107	0x3d903045	0.07040457
108	0x3c845738	0.01615487
109	0xbd91be11	-0.071163304
110	0xbd654cc8	-0.055981427
111	0xbdb22d7d	-0.087000825
112	0x3d79bf57	0.06097349
113	0xbd2724a5	-0.04080643
114	0xbdf2167f	-0.11820697
115	0xbd3242c2	-0.043520696
116	0xbdf7b897	-0.120957546
117	0x3d3d77f4	0.046256974
118	0xbc1a45ba	-0.009416038
119	0xbc961154	-0.01831881
120	0x3cef2314	0.029191531
121	0x3d9ec6c4	0.07752755
122	0xbae6b00f	-0.0017600077
123	0x3caa60b6	0.020798068
124	0xbd0e27b7	-0.034705844
125	0x3d85c445	0.06531576
126	0xbcf3ed25	-0.029776165
127	0xbd83d68a	-0.064374045
